eMoReHa/Assets/Ressources/mediapipeModels/face_detection_short_range.onnx (onnx, 425659 bytes, 74 tensors)

conv2d_6/Kernel f4 [48, 42, 1, 1]
-0.0013818741 0.0048294067 -0.0049972534 -0.060150146 -0.09527588 -0.027801514 -0.060333252 0.0413208
0.017242432 -0.08062744 -0.034820557 0.03552246 -0.005783081 -0.0019493103 -0.06945801 0.006061554
0.017822266 0.025436401 -0.040161133 0.003921509 -0.04812622 0.007045746 -0.022735596 -0.018676758
0.027755737 0.0149383545 -0.014633179 0.0055351257 -0.000562191 -0.012390137 0.020965576 0.035461426
-0.03363037 0.020767212 0.06500244 0.118896484 0.008483887 -0.029541016 0.037353516 0.03604126
0.008956909 -0.03881836 0.0038700104 0.07836914 -0.033691406 0.07885742 0.09851074 0.025268555
0.008506775 -0.038269043 0.011894226 0.029052734 -0.045196533 -0.051574707 0.025024414 0.009902954
0.053771973 -0.017227173 0.020065308 0.05822754 -0.03866577 -0.011894226 -0.06011963 0.00036215782
-0.06378174 0.004119873 0.021453857 -0.057495117 0.014038086 -0.07171631 0.032684326 -0.047088623
0.066833496 0.026229858 -0.011505127 0.023895264 0.1706543 -0.015342712 -0.0009384155 0.049621582
-0.04901123 -0.052093506 -0.022262573 -0.044555664 0.039276123 -0.029418945 -0.047821045 0.025924683
-0.002532959 0.10852051 0.09899902 0.11566162 -0.025878906 -0.0023117065 0.009140015 -0.04598999
0.07171631 -0.05029297 -0.009902954 0.020858765 0.088378906 -0.022506714 -0.039154053 -0.025482178
0.0074882507 0.019119263 -0.020812988 -0.018478394 -0.027618408 -0.076293945 -0.08117676 -0.009208679
0.08544922 -0.016998291 0.16540527 0.06616211 0.011871338 -0.07904053 -0.009933472 0.020050049
0.025314331 -0.055908203 -0.009033203 0.08538818 -0.024780273 0.082214355 0.010902405 -0.017532349
0.056243896 0.010536194 -0.03930664 0.014137268 0.039520264 0.024612427 0.020584106 0.009765625
-0.04083252 -0.014305115 -0.0146102905 -0.02909851 -0.0037269592 -0.07550049 -0.006034851 -0.014457703
0.028930664 -0.04260254 0.03643799 -0.008735657 -0.009719849 0.0015249252 -0.039001465 0.0362854
-0.04071045 -0.007472992 0.00083875656 0.0041007996 0.030227661 0.007621765 0.029953003 0.019470215
0.017700195 -0.023284912 -0.017089844 0.014160156 0.036712646 -0.014518738 0.055908203 0.017318726
-0.09857178 -0.03640747 0.023651123 -0.00680542 -0.005832672 0.03439331 0.08129883 -0.06829834
-0.06347656 -0.10424805 0.09466553 -0.07287598 0.029510498 -0.017990112 -0.042785645 0.036621094
0.06695557 -0.06616211 0.07244873 -0.042419434 -0.052856445 0.031021118 0.12646484 -0.009681702
-0.10638428 -0.06518555 -0.043762207 0.08001709 -0.08630371 -0.057525635 0.037628174 0.023498535
-0.0061798096 -0.0064926147 -0.025131226 0.016601562 -0.17272949 0.066833496 -0.0904541 0.03289795
-0.0071487427 -0.009841919 -0.0050964355 0.013206482 -0.092041016 -0.116760254 0.010574341 -0.008384705
-0.005180359 0.1060791 -0.054840088 -0.020858765 0.09106445 -0.047088623 -0.11468506 -0.010673523
-0.027572632 0.014015198 -0.13598633 0.11279297 -0.021087646 -0.10040283 0.059020996 0.085632324
0.10394287 -0.04031372 -0.069885254 0.13586426 -0.02911377 0.034820557 0.007511139 -0.024307251
-0.019592285 0.034423828 -0.0814209 0.051757812 -0.08123779 0.022720337 -0.09094238 0.06854248
0.028823853 -0.08251953 -0.0074920654 0.11639404 -0.0048065186 -0.024307251 0.05505371 -0.01977539
00000000: 0020 b5ba 0040 9e3b 00c0 a3bb 0060 76bd
00000010: 0020 c3bd 00c0 e3bc 0020 77bd 0040 293d
00000020: 0040 8d3c 0020 a5bd 00a0 0ebd 0080 113d
00000030: 0080 bdbb 0080 ffba 0040 8ebd 00a0 c63b
00000040: 0000 923c 0060 d03c 0080 24bd 0080 803b
00000050: 0020 45bd 00e0 e63b 0040 babc 0000 99bc
00000060: 0060 e33c 00c0 743c 00c0 6fbc 0060 b53b
00000070: 0060 13ba 0000 4bbc 00c0 ab3c 0040 113d
00000080: 00c0 09bd 0020 aa3c 0020 853d 0080 f33d
00000090: 0000 0b3c 0000 f2bc 0000 193d 00a0 133d
000000a0: 00c0 123c 0000 1fbd 00a0 7d3b 0080 a03d
000000b0: 0000 0abd 0080 a13d 00c0 c93d 0000 cf3c
000000c0: 0060 0b3c 00c0 1cbd 00e0 423c 0000 ee3c
000000d0: 0020 39bd 0040 53bd 0000 cd3c 0040 223c
000000e0: 0040 5c3d 0020 8dbc 0060 a43c 0080 6e3d
000000f0: 0060 1ebd 00e0 42bc 0040 76bd 00e0 bd39
00000100: 00a0 82bd 0000 873b 00c0 af3c 0080 6bbd
00000110: 0000 663c 00e0 92bd 00e0 053d 00e0 40bd
00000120: 00e0 883d 00e0 d63c 0080 3cbc 00c0 c33c
00000130: 00c0 2e3e 0060 7bbc 0000 76ba 0040 4b3d
00000140: 00c0 48bd 0060 55bd 0060 b6bc 0080 36bd
00000150: 00e0 203d 0000 f1bc 00e0 43bd 0060 d43c
00000160: 0000 26bb 0040 de3d 00c0 ca3d 00e0 ec3d
00000170: 0000 d4bc 0080 17bb 00c0 153c 0060 3cbd
00000180: 00e0 923d 0000 4ebd 0040 22bc 00e0 aa3c
00000190: 0000 b53d 0060 b8bc 0060 20bd 00c0 d0bc
000001a0: 0060 f53b 00a0 9c3c 0080 aabc 0060 97bc
000001b0: 0040 e2bc 0040 9cbd 0040 a6bd 00e0 16bc
000001c0: 0000 af3d 0040 8bbc 0060 293e 0080 873d
000001d0: 0080 423c 00e0 a1bd 00c0 22bc 0040 a43c
000001e0: 0060 cf3c 0000 65bd 0000 14bc 00e0 ae3d
000001f0: 0000 cbbc 0060 a83d 00a0 323c 00a0 8fbc
00000200: 0060 663d 00a0 2c3c 0000 21bd 00a0 673c
00000210: 00e0 213d 00a0 c93c 00a0 a83c 0000 203c
00000220: 0040 27bd 0060 6abc 0060 6fbc 0060 eebc
00000230: 0040 74bb 00a0 9abd 00c0 c5bb 00e0 6cbc
00000240: 0000 ed3c 0080 2ebd 0040 153d 0020 0fbc
00000250: 0040 1fbc 00e0 c73a 00c0 1fbd 00a0 143d
00000260: 00c0 26bd 00e0 f4bb 00e0 5b3a 0060 863b
00000270: 00a0 f73c 00c0 f93b 0060 f53c 0080 9f3c
00000280: 0000 913c 00c0 bebc 0000 8cbc 0000 683c
00000290: 0060 163d 00e0 6dbc 0000 653d 00e0 8d3c
000002a0: 00e0 c9bd 0020 15bd 00c0 c13c 0000 dfbb
000002b0: 0020 bfbb 00e0 0c3d 0080 a63d 00e0 8bbd
000002c0: 0000 82bd 0080 d5bd 00e0 c13d 0040 95bd
000002d0: 00c0 f13c 0060 93bc 0040 2fbd 0000 163d
000002e0: 0020 893d 0080 87bd 0060 943d 00c0 2dbd
000002f0: 0080 58bd 0020 fe3c 0080 013e 00a0 1ebc
00000300: 00e0 d9bd 0080 85bd 0040 33bd 00e0 a33d
00000310: 00c0 b0bd 00a0 6bbd 0020 1a3d 0080 c03c
00000320: 0080 cabb 00c0 d4bb 00e0 cdbc 0000 883c
00000330: 00e0 30be 00e0 883d 0040 b9bd 00c0 063d
00000340: 0040 eabb 0040 21bc 0000 a7bb 0060 583c
00000350: 0080 bcbd 0020 efbd 0040 2d3c 0060 09bc
00000360: 00c0 a9bb 0040 d93d 00a0 60bd 00e0 aabc
00000370: 0080 ba3d 00e0 40bd 00e0 eabd 00e0 2ebc
00000380: 00e0 e1bc 00a0 653c 0040 0bbe 0000 e73d
00000390: 00c0 acbc 00a0 cdbd 00c0 713d 0060 af3d
000003a0: 00e0 d43d 0020 25bd 0020 8fbd 0020 0b3e
000003b0: 0080 eebc 00a0 0e3d 0020 f63b 0020 c7bc
000003c0: 0080 a0bc 0000 0d3d 00c0 a6bd 0000 543d
000003d0: 0060 a6bd 0020 ba3c 0040 babd 0060 8c3d
000003e0: 0020 ec3c 0000 a9bd 0080 f5bb 0060 ee3d
000003f0: 0080 9dbb 0020 c7bc 0080 613d 0000 a2bc

depthwise_conv2d_4/Kernel f4 [36, 1, 3, 3]
-0.99121094 -1.6259766 -1.0683594 -1.1396484 0.42236328 0.016326904 0.021499634 0.79248047
-0.12042236 0.36523438 0.039520264 0.2541504 -0.3256836 -1.8701172 0.058135986 -0.7109375
-0.7001953 0.05368042 1.1015625 1.0996094 -0.21850586 0.6816406 1.0195312 -0.7089844
0.00060367584 0.31445312 -0.6801758 0.95410156 0.121520996 -0.87939453 0.9008789 -0.1661377
-1.5429688 0.41430664 0.4868164 -0.6801758 0.9741211 -0.27856445 -0.9291992 0.93603516
-0.671875 -1.2773438 -0.26367188 -0.58251953 -1.1054688 -0.032073975 -0.97753906 -0.43725586
0.11621094 -1.8447266 -1.0283203 0.20593262 0.7285156 0.09375 0.3400879 -1.2246094
-0.4975586 -1.0087891 -1.5068359 0.4326172 -0.42285156 0.45507812 0.63183594 1.1162109
1.7421875 1.0371094 0.4880371 1.640625 0.22875977 -0.3569336 -0.72216797 -0.54248047
-0.5336914 0.3100586 0.07098389 -1.2714844 0.45117188 0.89990234 -1.1162109 0.58691406
0.7734375 0.5644531 1.4472656 0.2512207 -0.072509766 1.4453125 0.58691406 -0.68066406
-1.1171875 -0.5932617 0.4074707 1.2685547 0.25317383 0.3984375 1.6259766 1.6982422
0.15429688 -0.14770508 0.56689453 -0.95166016 -0.3388672 0.72998047 -1.5009766 -0.4633789
1.2382812 0.4892578 0.9482422 0.74316406 0.115722656 0.018554688 -0.33911133 -0.51953125
-1.8837891 -0.7207031 -0.23876953 -0.56347656 -0.2915039 -1.5849609 -1.8232422 -0.15222168
-0.0869751 0.32861328 0.5751953 1.0927734 0.65625 0.3400879 0.43579102 0.7939453
0.5332031 -0.5317383 -0.9716797 -0.87597656 -0.65478516 -0.96484375 -0.2980957 -0.7548828
-1.0849609 -1.1220703 0.5625 -0.011558533 -0.5444336 1.1210938 1.1748047 0.6113281
0.49267578 0.9033203 0.07659912 1.2949219 1.5869141 -0.0052833557 1.1748047 1.8935547
0.24572754 0.103393555 -0.0021972656 -0.29467773 0.014328003 -2.6171875 -0.050964355 -0.09320068
-0.22302246 -0.13134766 -1.2294922 -1.2587891 -0.50146484 0.26464844 1.4248047 0.5864258
0.6464844 0.8652344 0.37963867 -1.3789062 -0.036071777 1.1757812 -1.0390625 -0.050354004
1.625 0.14172363 0.27905273 0.7949219 1.515625 0.52490234 -0.33618164 1.1591797
2.015625 0.09313965 -0.15185547 0.10015869 -0.2788086 -0.61328125 -0.2479248 0.017730713
-1.1337891 -0.54248047 -0.062805176 -0.47753906 -0.4074707 -0.11175537 1.1699219 0.08935547
-0.92871094 1.6728516 0.3569336 -0.96533203 1.6777344 1.921875 -0.3774414 0.5048828
0.6796875 1.1298828 -0.11773682 -2.09375 -0.60302734 -0.14343262 -0.33007812 -0.042877197
-1.0537109 -0.49731445 0.43603516 -1.6035156 0.88720703 0.7421875 -0.50634766 1.3818359
0.5859375 0.15429688 1.1445312 0.024398804 -0.39648438 2.6796875 0.4794922 -0.5908203
0.70458984 0.65625 -0.14880371 -1.4707031 -0.92089844 0.23498535 -1.9111328 -0.63964844
-0.0947876 0.31396484 0.027435303 0.7104492 1.5322266 1.4355469 1.0458984 1.75
1.0205078 -0.4729004 0.5263672 0.5908203 2.1679688 1.3769531 1.3505859 1.4873047
00000000: 00c0 7dbf 0020 d0bf 00c0 88bf 00e0 91bf
00000010: 0040 d83e 00c0 853c 0020 b03c 00e0 4a3f
00000020: 00a0 f6bd 0000 bb3e 00e0 213d 0020 823e
00000030: 00c0 a6be 0060 efbf 0020 6e3d 0000 36bf
00000040: 0040 33bf 00e0 5b3d 0000 8d3f 00c0 8c3f
00000050: 00c0 5fbe 0080 2e3f 0080 823f 0080 35bf
00000060: 0040 1e3a 0000 a13e 0020 2ebf 0040 743f
00000070: 00e0 f83d 0020 61bf 00a0 663f 0020 2abe
00000080: 0080 c5bf 0020 d43e 0040 f93e 0020 2ebf
00000090: 0060 793f 00a0 8ebe 00e0 6dbf 00a0 6f3f
000000a0: 0000 2cbf 0080 a3bf 0000 87be 0020 15bf
000000b0: 0080 8dbf 0060 03bd 0040 7abf 00e0 dfbe
000000c0: 0000 ee3d 0020 ecbf 00a0 83bf 00e0 523e
000000d0: 0080 3a3f 0000 c03d 0020 ae3e 00c0 9cbf
000000e0: 00c0 febe 0020 81bf 00e0 c0bf 0080 dd3e
000000f0: 0080 d8be 0000 e93e 00c0 213f 00e0 8e3f
00000100: 0000 df3f 00c0 843f 00e0 f93e 0000 d23f
00000110: 0040 6a3e 00c0 b6be 00e0 38bf 00e0 0abf
00000120: 00a0 08bf 00c0 9e3e 0060 913d 00c0 a2bf
00000130: 0000 e73e 0060 663f 00e0 8ebf 0040 163f
00000140: 0000 463f 0080 103f 0040 b93f 00a0 803e
00000150: 0080 94bd 0000 b93f 0040 163f 0040 2ebf
00000160: 0000 8fbf 00e0 17bf 00a0 d03e 0060 a23f
00000170: 00a0 813e 0000 cc3e 0020 d03f 0060 d93f
00000180: 0000 1e3e 0040 17be 0020 113f 00a0 73bf
00000190: 0080 adbe 00e0 3a3f 0020 c0bf 0040 edbe
000001a0: 0080 9e3f 0080 fa3e 00c0 723f 0040 3e3f
000001b0: 0000 ed3d 0000 983c 00a0 adbe 0000 05bf
000001c0: 0020 f1bf 0080 38bf 0080 74be 0040 10bf
000001d0: 0040 95be 00e0 cabf 0060 e9bf 00e0 1bbe
000001e0: 0020 b2bd 0040 a83e 0040 133f 00e0 8b3f
000001f0: 0000 283f 0020 ae3e 0020 df3e 0040 4b3f
00000200: 0080 083f 0020 08bf 00c0 78bf 0040 60bf
00000210: 00a0 27bf 0000 77bf 00a0 98be 0040 41bf
00000220: 00e0 8abf 00a0 8fbf 0000 103f 0060 3dbc
00000230: 0060 0bbf 0080 8f3f 0060 963f 0080 1c3f
00000240: 0040 fc3e 0040 673f 00e0 9c3d 00c0 a53f
00000250: 0020 cb3f 0020 adbb 0060 963f 0060 f23f
00000260: 00a0 7b3e 00c0 d33d 0000 10bb 00e0 96be
00000270: 00c0 6a3c 0080 27c0 00c0 50bd 00e0 bebd
00000280: 0060 64be 0080 06be 0060 9dbf 0020 a1bf
00000290: 0060 00bf 0080 873e 0060 b63f 0020 163f
000002a0: 0080 253f 0080 5d3f 0060 c23e 0080 b0bf
000002b0: 00c0 13bd 0080 963f 0000 85bf 0040 4ebd
000002c0: 0000 d03f 0020 113e 00e0 8e3e 0080 4b3f
000002d0: 0000 c23f 0060 063f 0020 acbe 0060 943f
000002e0: 0000 0140 00c0 be3d 0080 1bbe 0020 cd3d
000002f0: 00c0 8ebe 0000 1dbf 00e0 7dbe 0040 913c
00000300: 0020 91bf 00e0 0abf 00a0 80bd 0080 f4be
00000310: 00a0 d0be 00e0 e4bd 00c0 953f 0000 b73d
00000320: 00c0 6dbf 0020 d63f 00c0 b63e 0020 77bf
00000330: 00c0 d63f 0000 f63f 0040 c1be 0040 013f
00000340: 0000 2e3f 00a0 903f 0020 f1bd 0000 06c0
00000350: 0060 1abf 00e0 12be 0000 a9be 00a0 2fbd
00000360: 00e0 86bf 00a0 febe 0040 df3e 0040 cdbf
00000370: 0020 633f 0000 3e3f 00a0 01bf 00e0 b03f
00000380: 0000 163f 0000 1e3e 0080 923f 00e0 c73c
00000390: 0000 cbbe 0080 2b40 0080 f53e 0040 17bf
000003a0: 0060 343f 0000 283f 0060 18be 0040 bcbf
000003b0: 00c0 6bbf 00a0 703e 00a0 f4bf 00c0 23bf
000003c0: 0020 c2bd 00c0 a03e 00c0 e03c 00e0 353f
000003d0: 0020 c43f 00c0 b73f 00e0 853f 0000 e03f
000003e0: 00a0 823f 0020 f2be 00c0 063f 0040 173f
000003f0: 00c0 0a40 0040 b03f 00e0 ac3f 0060 be3f

conv2d_9/Bias f4 [72]
-0.11291504 0.55859375 -0.080322266 -0.4802246 -0.12719727 1.1572266 -0.85839844 -0.74072266
-1.5302734 -0.17016602 0.7338867 3.1972656 0.028015137 1.5556641 0.21789551 0.6948242
-1.171875 0.7661133 -0.9135742 -0.7675781 -0.003004074 -0.73291016 -0.2866211 -0.8911133
-0.6044922 1.1728516 1.6816406 0.48413086 0.87939453 -0.26538086 -1.2802734 -0.44604492
0.85791016 -0.13439941 -0.8486328 -1.1152344 0.26000977 1.1484375 -1.5195312 1.0205078
-1.5791016 -0.30126953 -0.3557129 0.72216797 0.16479492 0.7524414 0.25732422 -0.8857422
0.2998047 0.026107788 -0.34204102 -0.5463867 0.11315918 0.91796875 -0.28100586 0.8754883
0.41235352 -0.47509766 -0.48291016 -0.08728027 0.19250488 0.35986328 0.39990234 -0.8364258
0.65527344 -3.5976562 0.48510742 -0.0059165955 0.018859863 0.15979004 0.40307617 0.20605469
00000000: 0040 e7bd 0000 0f3f 0080 a4bd 00e0 f5be
00000010: 0040 02be 0020 943f 00c0 5bbf 00a0 3dbf
00000020: 00e0 c3bf 0040 2ebe 00e0 3b3f 00a0 4c40
00000030: 0080 e53c 0020 c73f 0020 5f3e 00e0 313f
00000040: 0000 96bf 0020 443f 00e0 69bf 0080 44bf
00000050: 00e0 44bb 00a0 3bbf 00c0 92be 0020 64bf
00000060: 00c0 1abf 0020 963f 0040 d73f 00e0 f73e
00000070: 0020 613f 00e0 87be 00e0 a3bf 0060 e4be
00000080: 00a0 5b3f 00a0 09be 0040 59bf 00c0 8ebf
00000090: 0020 853e 0000 933f 0080 c2bf 00a0 823f
000000a0: 0020 cabf 0040 9abe 0020 b6be 00e0 383f
000000b0: 00c0 283e 00a0 403f 00c0 833e 00c0 62bf
000000c0: 0080 993e 00e0 d53c 0020 afbe 00e0 0bbf
000000d0: 00c0 e73d 0000 6b3f 00e0 8fbe 0020 603f
000000e0: 0020 d33e 0040 f3be 0040 f7be 00c0 b2bd
000000f0: 0020 453e 0040 b83e 00c0 cc3e 0020 56bf
00000100: 00c0 273f 0040 66c0 0060 f83e 00e0 c1bb
00000110: 0080 9a3c 00a0 233e 0060 ce3e 0000 533e

depthwise_conv2d_2/Kernel f4 [28, 1, 3, 3]
1.1347656 2.0019531 1.3212891 1.5146484 2.5996094 1.640625 0.76220703 1.2626953
0.6586914 -0.75146484 -1.078125 -0.66308594 -1.0498047 -1.9375 -1.1318359 -0.69921875
-1.0810547 -0.44604492 -0.61035156 -1.3251953 -1.0458984 0.70751953 0.40161133 -0.27319336
1.4169922 1.3974609 0.44555664 0.8989258 1.2431641 0.6743164 0.52001953 1.6699219
1.1669922 -0.2006836 0.15405273 0.6816406 -0.50878906 -0.5292969 -0.37426758 -1.1064453
-1.0546875 -0.37963867 -0.8051758 -1.0673828 -0.2697754 -1.0683594 -1.0019531 -0.32226562
-1.2568359 -1.4345703 -0.33618164 -0.5419922 -0.7607422 -0.12475586 0.83691406 1.4599609
0.33032227 0.5292969 2.0214844 1.1132812 -0.5083008 1.0322266 1.4482422 -0.78271484
-0.026245117 0.5209961 0.03591919 0.7128906 0.85546875 0.4555664 0.8457031 0.25561523
-0.734375 -1.5166016 -0.9199219 -1.1074219 -2.1660156 -1.6152344 -0.52197266 -1.2871094
-0.890625 1.3066406 1.4824219 0.578125 0.8232422 0.9213867 0.6323242 -0.30737305
-0.21325684 0.1126709 -0.56689453 -1.4882812 -1.1103516 -1.4765625 -2.4121094 -1.4013672
-1.2871094 -1.4804688 -0.43920898 -0.72265625 -0.80859375 -0.2788086 -0.6616211 -1.2460938
-0.4645996 -0.20727539 -0.50927734 -0.27539062 -0.24035645 -0.34350586 -0.07366943 -0.83251953
-1.359375 -0.64697266 -0.64453125 -1.0078125 -0.4567871 -2.0410156 -2.1542969 -0.9951172
-2.0449219 -1.3056641 0.027679443 0.5908203 1.2734375 1.0849609 -0.36987305 -1.8964844
-1.8115234 0.8730469 0.5527344 -0.38183594 0.6015625 1.3486328 0.68847656 1.3115234
2.0117188 0.76953125 1.7099609 2.4277344 0.96191406 0.8251953 0.5493164 0.14562988
-1.4755859 -1.8886719 -0.70410156 -1.1611328 -1.8164062 -1.0507812 0.1928711 -0.20727539
-0.4873047 -0.52490234 -1.1162109 -0.66845703 -0.98583984 -1.4863281 -0.70458984 -0.3322754
-0.5136719 -0.37695312 -1.0273438 -0.9355469 -0.73828125 -0.8334961 -0.6352539 -0.14355469
-0.14257812 0.47851562 0.60058594 1.3974609 1.1464844 0.1270752 1.6757812 1.7011719
-0.38623047 0.023361206 0.15185547 -0.3425293 1.3447266 0.9301758 0.085632324 2.1699219
1.5605469 -0.14746094 0.875 0.5361328 -0.2088623 -0.4506836 -0.9082031 -0.7685547
-1.0185547 -2.0722656 -1.3515625 -1.1230469 -1.4980469 -0.6958008 1.2246094 1.7333984
0.73583984 1.2705078 1.9443359 0.9838867 0.4699707 0.8642578 0.38671875 -0.9560547
-1.1132812 -0.12573242 -0.9946289 -1.3632812 -0.3161621 -0.038757324 -0.07476807 -0.13378906
0.5625 1.7324219 1.8994141 0.51220703 1.8291016 1.8261719 -0.07019043 0.45703125
0.0061950684 -1.3759766 -1.9619141 -1.4277344 -0.9399414 -0.8251953 -1.1816406 -0.8569336
-1.2978516 -1.2519531 2.3242188 1.9990234 -0.5864258 3.2734375 2.8105469 0.3701172
2.8867188 2.0058594 0.49487305 -0.92089844 -0.47070312 0.22497559 -1.3642578 -0.7158203
0.46972656 -1.0087891 -0.019058228 0.56933594
00000000: 0040 913f 0020 0040 0020 a93f 00e0 c13f
00000010: 0060 2640 0000 d23f 0020 433f 00a0 a13f
00000020: 00a0 283f 0060 40bf 0000 8abf 00c0 29bf
00000030: 0060 86bf 0000 f8bf 00e0 90bf 0000 33bf
00000040: 0060 8abf 0060 e4be 0040 1cbf 00a0 a9bf
00000050: 00e0 85bf 0020 353f 00a0 cd3e 00e0 8bbe
00000060: 0060 b53f 00e0 b23f 0020 e43e 0020 663f
00000070: 0020 9f3f 00a0 2c3f 0020 053f 00c0 d53f
00000080: 0060 953f 0080 4dbe 00c0 1d3e 0080 2e3f
00000090: 0040 02bf 0080 07bf 00a0 bfbe 00a0 8dbf
000000a0: 0000 87bf 0060 c2be 0020 4ebf 00a0 88bf
000000b0: 0020 8abe 00c0 88bf 0040 80bf 0000 a5be
000000c0: 00e0 a0bf 00a0 b7bf 0020 acbe 00c0 0abf
000000d0: 00c0 42bf 0080 ffbd 0040 563f 00e0 ba3f
000000e0: 0020 a93e 0080 073f 0060 0140 0080 8e3f
000000f0: 0020 02bf 0020 843f 0060 b93f 0060 48bf
00000100: 0000 d7bc 0060 053f 0020 133d 0080 363f
00000110: 0000 5b3f 0040 e93e 0080 583f 00e0 823e
00000120: 0000 3cbf 0020 c2bf 0080 6bbf 00c0 8dbf
00000130: 00a0 0ac0 00c0 cebf 00a0 05bf 00c0 a4bf
00000140: 0000 64bf 0040 a73f 00c0 bd3f 0000 143f
00000150: 00c0 523f 00e0 6b3f 00e0 213f 0060 9dbe
00000160: 0060 5abe 00c0 e63d 0020 11bf 0080 bebf
00000170: 0020 8ebf 0000 bdbf 0060 1ac0 0060 b3bf
00000180: 00c0 a4bf 0080 bdbf 00e0 e0be 0000 39bf
00000190: 0000 4fbf 00c0 8ebe 0060 29bf 0080 9fbf
000001a0: 00e0 edbe 0040 54be 0060 02bf 0000 8dbe
000001b0: 0020 76be 00e0 afbe 00e0 96bd 0020 55bf
000001c0: 0000 aebf 00a0 25bf 0000 25bf 0000 81bf
000001d0: 00e0 e9be 00a0 02c0 00e0 09c0 00c0 7ebf
000001e0: 00e0 02c0 0020 a7bf 00c0 e23c 0040 173f
000001f0: 0000 a33f 00e0 8a3f 0060 bdbe 00c0 f2bf
00000200: 00e0 e7bf 0080 5f3f 0080 0d3f 0080 c3be
00000210: 0000 1a3f 00a0 ac3f 0040 303f 00e0 a73f
00000220: 00c0 0040 0000 453f 00e0 da3f 0060 1b40
00000230: 0040 763f 0040 533f 00a0 0c3f 0020 153e
00000240: 00e0 bcbf 00c0 f1bf 0040 34bf 00a0 94bf
00000250: 0080 e8bf 0080 86bf 0080 453e 0040 54be
00000260: 0080 f9be 0060 06bf 00e0 8ebf 0020 2bbf
00000270: 0060 7cbf 0040 bebf 0060 34bf 0020 aabe
00000280: 0080 03bf 0000 c1be 0080 83bf 0080 6fbf
00000290: 0000 3dbf 0060 55bf 00a0 22bf 0000 13be
000002a0: 0000 12be 0000 f53e 00c0 193f 00e0 b23f
000002b0: 00c0 923f 0020 023e 0080 d63f 00c0 d93f
000002c0: 00c0 c5be 0060 bf3c 0080 1b3e 0060 afbe
000002d0: 0020 ac3f 0020 6e3f 0060 af3d 00e0 0a40
000002e0: 00c0 c73f 0000 17be 0000 603f 0040 093f
000002f0: 00e0 55be 00c0 e6be 0080 68bf 00c0 44bf
00000300: 0060 82bf 00a0 04c0 0000 adbf 00c0 8fbf
00000310: 00c0 bfbf 0020 32bf 00c0 9c3f 00e0 dd3f
00000320: 0060 3c3f 00a0 a23f 00e0 f83f 00e0 7b3f
00000330: 00a0 f03e 0040 5d3f 0000 c63e 00c0 74bf
00000340: 0080 8ebf 00c0 00be 00a0 7ebf 0080 aebf
00000350: 00e0 a1be 00c0 1ebd 0020 99bd 0000 09be
00000360: 0000 103f 00c0 dd3f 0020 f33f 0020 033f
00000370: 0020 ea3f 00c0 e93f 00c0 8fbd 0000 ea3e
00000380: 0000 cb3b 0020 b0bf 0020 fbbf 00c0 b6bf
00000390: 00a0 70bf 0040 53bf 0040 97bf 0060 5bbf
000003a0: 0020 a6bf 0040 a0bf 00c0 1440 00e0 ff3f
000003b0: 0020 16bf 0080 5140 00e0 3340 0080 bd3e
000003c0: 00c0 3840 0060 0040 0060 fd3e 00c0 6bbf
000003d0: 0000 f1be 0060 663e 00a0 aebf 0040 37bf
000003e0: 0080 f03e 0020 81bf 0020 9cbc 00c0 113f

depthwise_conv2d_9/Bias f4 [72]
0.0 0.0 0.0 0.0 0.0 0.0 0.0 0.0
0.0 0.0 0.0 0.0 0.0 0.0 0.0 0.0
0.0 0.0 0.0 0.0 0.0 0.0 0.0 0.0
0.0 0.0 0.0 0.0 0.0 0.0 0.0 0.0
0.0 0.0 0.0 0.0 0.0 0.0 0.0 0.0
0.0 0.0 0.0 0.0 0.0 0.0 0.0 0.0
0.0 0.0 0.0 0.0 0.0 0.0 0.0 0.0
0.0 0.0 0.0 0.0 0.0 0.0 0.0 0.0
0.0 0.0 0.0 0.0 0.0 0.0 0.0 0.0
00000000: 0000 0000 0000 0000 0000 0000 0000 0000
00000010: 0000 0000 0000 0000 0000 0000 0000 0000
00000020: 0000 0000 0000 0000 0000 0000 0000 0000
00000030: 0000 0000 0000 0000 0000 0000 0000 0000
00000040: 0000 0000 0000 0000 0000 0000 0000 0000
00000050: 0000 0000 0000 0000 0000 0000 0000 0000
00000060: 0000 0000 0000 0000 0000 0000 0000 0000
00000070: 0000 0000 0000 0000 0000 0000 0000 0000
00000080: 0000 0000 0000 0000 0000 0000 0000 0000
00000090: 0000 0000 0000 0000 0000 0000 0000 0000
000000a0: 0000 0000 0000 0000 0000 0000 0000 0000
000000b0: 0000 0000 0000 0000 0000 0000 0000 0000
000000c0: 0000 0000 0000 0000 0000 0000 0000 0000
000000d0: 0000 0000 0000 0000 0000 0000 0000 0000
000000e0: 0000 0000 0000 0000 0000 0000 0000 0000
000000f0: 0000 0000 0000 0000 0000 0000 0000 0000
00000100: 0000 0000 0000 0000 0000 0000 0000 0000
00000110: 0000 0000 0000 0000 0000 0000 0000 0000

depthwise_conv2d_1/Kernel f4 [24, 1, 3, 3]
-0.75439453 -0.21008301 -0.17199707 0.28271484 4.421875 0.04537964 0.1763916 1.0
0.58154297 -0.4555664 0.38867188 0.71435547 0.86376953 -0.49804688 1.9130859 0.70751953
0.046325684 0.41235352 0.28320312 -0.20019531 0.2800293 -0.68310547 -2.3613281 0.51904297
0.47631836 0.14990234 0.32421875 0.32983398 -1.1162109 -1.7851562 1.4345703 -0.81884766
-2.2207031 -0.42333984 1.2578125 -0.2878418 -0.65722656 -1.0185547 -0.1105957 0.4814453
1.2460938 -0.47387695 -0.3815918 1.6142578 -0.484375 1.0224609 1.9335938 -0.090270996
0.4790039 -0.18127441 -0.3466797 -0.023925781 0.17468262 0.0040740967 -0.62353516 0.4423828
1.3632812 -1.3515625 0.5317383 1.3310547 -0.54052734 -0.2668457 1.0644531 0.3305664
1.4697266 0.8623047 0.68652344 1.7460938 0.8286133 -0.037872314 0.44799805 0.36816406
-0.34277344 -0.6635742 0.55371094 0.13342285 -1.9101562 -0.069885254 0.55566406 -1.2998047
-0.57177734 0.12585449 1.1308594 0.70410156 0.82714844 1.4013672 0.17834473 -0.43676758
0.030822754 -0.21191406 0.83691406 0.6982422 0.2939453 0.3791504 0.15734863 0.40649414
-0.22302246 1.4814453 0.06817627 -0.38500977 -0.7963867 0.19018555 1.0136719 -0.75
-0.4428711 0.29418945 0.96875 0.5883789 -0.47436523 -1.2089844 -0.00033855438 -0.051239014
1.3134766 0.22937012 -0.09210205 0.6035156 0.2109375 1.2304688 0.81396484 0.109191895
1.1103516 1.9873047 -0.46362305 -0.4248047 0.5234375 -0.05154419 0.015655518 0.9970703
-0.0009775162 -0.16625977 -3.4042969 0.34594727 -0.36621094 1.1152344 0.48339844 0.59765625
0.7714844 0.016174316 1.3505859 1.7197266 -0.20202637 0.032196045 -0.18273926 -1.03125
-0.359375 -1.2871094 -0.5234375 0.7211914 -0.66748047 -0.69384766 0.5053711 1.6484375
0.8754883 0.14562988 0.81396484 -0.2709961 0.71728516 -0.01689148 -1.2207031 -0.2529297
-1.9746094 -1.6982422 0.47680664 0.15075684 -0.17407227 0.26464844 -0.9785156 -0.44213867
-0.33032227 -0.8256836 -0.44091797 -0.2130127 1.0097656 -0.53759766 -0.54589844 1.3457031
0.5961914 0.18688965 -0.11920166 0.103515625 0.27490234 -0.64404297 -0.6118164 0.016143799
1.8515625 -0.8022461 0.86816406 0.90283203 -0.2548828 1.4052734 1.9648438 0.06188965
1.7802734 2.890625 0.9746094 -0.048614502 0.2849121 -0.07800293 0.02178955 -0.9057617
-0.7451172 1.40625 1.8964844 0.42993164 -0.23352051 -0.6064453 0.16247559 -1.4863281
1.3701172 -0.34204102 -1.2353516 1.5566406 -0.013748169 -0.119628906 -0.043304443 -0.14489746
00000000: 0020 41bf 0020 57be 0020 30be 00c0 903e
00000010: 0080 8d40 00e0 393d 00a0 343e 0000 803f
00000020: 00e0 143f 0040 e9be 0000 c73e 00e0 363f
00000030: 0020 5d3f 0000 ffbe 00e0 f43f 0020 353f
00000040: 00c0 3d3d 0020 d33e 0000 913e 0000 4dbe
00000050: 0060 8f3e 00e0 2ebf 0020 17c0 00e0 043f
00000060: 00e0 f33e 0080 193e 0000 a63e 00e0 a83e
00000070: 00e0 8ebf 0080 e4bf 00a0 b73f 00a0 51bf
00000080: 0020 0ec0 00c0 d8be 0000 a13f 0060 93be
00000090: 0040 28bf 0060 82bf 0080 e2bd 0080 f63e
000000a0: 0080 9f3f 00a0 f2be 0060 c3be 00a0 ce3f
000000b0: 0000 f8be 00e0 823f 0080 f73f 00e0 b8bd
000000c0: 0040 f53e 00a0 39be 0080 b1be 0000 c4bc
000000d0: 00e0 323e 0080 853b 00a0 1fbf 0080 e23e
000000e0: 0080 ae3f 0000 adbf 0020 083f 0060 aa3f
000000f0: 0060 0abf 00a0 88be 0040 883f 0040 a93e
00000100: 0020 bc3f 00c0 5c3f 00c0 2f3f 0080 df3f
00000110: 0020 543f 0020 1bbd 0060 e53e 0080 bc3e
00000120: 0080 afbe 00e0 29bf 00c0 0d3f 00a0 083e
00000130: 0080 f4bf 0020 8fbd 0040 0e3f 0060 a6bf
00000140: 0060 12bf 00e0 003e 00c0 903f 0040 343f
00000150: 00c0 533f 0060 b33f 00a0 363e 00a0 dfbe
00000160: 0080 fc3c 0000 59be 0040 563f 00c0 323f
00000170: 0080 963e 0020 c23e 0020 213e 0020 d03e
00000180: 0060 64be 00a0 bd3f 00a0 8b3d 0020 c5be
00000190: 00e0 4bbf 00c0 423e 00c0 813f 0000 40bf
000001a0: 00c0 e2be 00a0 963e 0000 783f 00a0 163f
000001b0: 00e0 f2be 00c0 9abf 0080 b1b9 00e0 51bd
000001c0: 0020 a83f 00e0 6a3e 00a0 bcbd 0080 1a3f
000001d0: 0000 583e 0080 9d3f 0060 503f 00a0 df3d
000001e0: 0020 8e3f 0060 fe3f 0060 edbe 0080 d9be
000001f0: 0000 063f 0020 53bd 0040 803c 0040 7f3f
00000200: 0020 80ba 0040 2abe 00e0 59c0 0020 b13e
00000210: 0080 bbbe 00c0 8e3f 0080 f73e 0000 193f
00000220: 0080 453f 0080 843c 00e0 ac3f 0020 dc3f
00000230: 00e0 4ebe 00e0 033d 0020 3bbe 0000 84bf
00000240: 0000 b8be 00c0 a4bf 0000 06bf 00a0 383f
00000250: 00e0 2abf 00a0 31bf 0060 013f 0000 d33f
00000260: 0020 603f 0020 153e 0060 503f 00c0 8abe
00000270: 00a0 373f 0060 8abc 0040 9cbf 0080 81be
00000280: 00c0 fcbf 0060 d9bf 0020 f43e 0060 1a3e
00000290: 0040 32be 0080 873e 0080 7abf 0060 e2be
000002a0: 0020 a9be 0060 53bf 00c0 e1be 0020 5abe
000002b0: 0040 813f 00a0 09bf 00c0 0bbf 0040 ac3f
000002c0: 00a0 183f 0060 3f3e 0020 f4bd 0000 d43d
000002d0: 00c0 8c3e 00e0 24bf 00a0 1cbf 0040 843c
000002e0: 0000 ed3f 0060 4dbf 0040 5e3f 0020 673f
000002f0: 0080 82be 00e0 b33f 0080 fb3f 0080 7d3d
00000300: 00e0 e33f 0000 3940 0080 793f 0020 47bd
00000310: 00e0 913e 00c0 9fbd 0080 b23c 00e0 67bf
00000320: 00c0 3ebf 0000 b43f 00c0 f23f 0020 dc3e
00000330: 0020 6fbe 0040 1bbf 0060 263e 0040 bebf
00000340: 0060 af3f 0020 afbe 0020 9ebf 0040 c73f
00000350: 0040 61bc 0000 f5bd 0060 31bd 0060 14be

depthwise_conv2d_3/Bias f4 [32]
0.0 0.0 0.0 0.0 0.0 0.0 0.0 0.0
0.0 0.0 0.0 0.0 0.0 0.0 0.0 0.0
0.0 0.0 0.0 0.0 0.0 0.0 0.0 0.0
0.0 0.0 0.0 0.0 0.0 0.0 0.0 0.0
00000000: 0000 0000 0000 0000 0000 0000 0000 0000
00000010: 0000 0000 0000 0000 0000 0000 0000 0000
00000020: 0000 0000 0000 0000 0000 0000 0000 0000
00000030: 0000 0000 0000 0000 0000 0000 0000 0000
00000040: 0000 0000 0000 0000 0000 0000 0000 0000
00000050: 0000 0000 0000 0000 0000 0000 0000 0000
00000060: 0000 0000 0000 0000 0000 0000 0000 0000
00000070: 0000 0000 0000 0000 0000 0000 0000 0000

regressor_16/Bias f4 [96]
-0.92871094 -0.3100586 20.125 20.09375 -2.5 -4.09375 2.2851562 -4.0898438
0.1427002 0.72802734 0.39282227 4.8789062 -5.1367188 -1.4267578 4.765625 -1.6826172
-1.4150391 -0.5209961 21.71875 21.734375 -2.7050781 -4.1523438 2.1425781 -4.1484375
0.20349121 1.0048828 0.3034668 5.375 -5.2148438 -1.4453125 4.3984375 -1.6542969
-1.3769531 -0.56347656 21.40625 21.390625 -2.8691406 -4.1015625 2.3046875 -4.1914062
0.37304688 0.9638672 0.22827148 5.21875 -5.1523438 -1.2880859 4.0742188 -1.5195312
-0.7949219 -0.4411621 19.453125 19.5 -2.7949219 -3.7304688 2.5078125 -4.0039062
0.5283203 0.75439453 0.49072266 4.6953125 -4.8125 -1.2001953 3.8457031 -1.6103516
-0.21472168 -0.20898438 17.296875 17.28125 -2.5722656 -3.2421875 2.625 -3.5371094
0.4699707 0.90625 0.44848633 4.0546875 -4.4570312 -1.3007812 4.1679688 -1.5644531
0.18310547 -0.18847656 14.84375 14.8359375 -2.4179688 -2.7324219 2.6035156 -2.9257812
0.33129883 0.91015625 0.42895508 3.5253906 -4.3203125 -1.3769531 4.2617188 -1.5292969
00000000: 00c0 6dbf 00c0 9ebe 0000 a141 00c0 a041
00000010: 0000 20c0 0000 83c0 0040 1240 00e0 82c0
00000020: 0020 123e 0060 3a3f 0020 c93e 0020 9c40
00000030: 0060 a4c0 00a0 b6bf 0080 9840 0060 d7bf
00000040: 0020 b5bf 0060 05bf 00c0 ad41 00e0 ad41
00000050: 0020 2dc0 00e0 84c0 0020 0940 00c0 84c0
00000060: 0060 503e 00a0 803f 0060 9b3e 0000 ac40
00000070: 00e0 a6c0 0000 b9bf 00c0 8c40 00c0 d3bf
00000080: 0040 b0bf 0040 10bf 0040 ab41 0020 ab41
00000090: 00a0 37c0 0040 83c0 0080 1340 0020 86c0
000000a0: 0000 bf3e 00c0 763f 00c0 693e 0000 a740
000000b0: 00e0 a4c0 00e0 a4bf 0060 8240 0080 c2bf
000000c0: 0080 4bbf 00e0 e1be 00a0 9b41 0000 9c41
000000d0: 00e0 32c0 00c0 6ec0 0080 2040 0020 80c0
000000e0: 0040 073f 0020 413f 0040 fb3e 0040 9640
000000f0: 0000 9ac0 00a0 99bf 0020 7640 0020 cebf
00000100: 00e0 5bbe 0000 56be 0060 8a41 0040 8a41
00000110: 00a0 24c0 0080 4fc0 0000 2840 0060 62c0
00000120: 00a0 f03e 0000 683f 00a0 e53e 00c0 8140
00000130: 00a0 8ec0 0080 a6bf 0060 8540 0040 c8bf
00000140: 0080 3b3e 0000 41be 0080 6d41 0060 6d41
00000150: 00c0 1ac0 00e0 2ec0 00a0 2640 0040 3bc0
00000160: 00a0 a93e 0000 693f 00a0 db3e 00a0 6140
00000170: 0040 8ac0 0040 b0bf 0060 8840 00c0 c3bf

depthwise_conv2d_9/Kernel f4 [72, 1, 3, 3]
-1.0927734 -1.5244141 -0.42236328 -0.2454834 -1.0478516 -1.2070312 0.19750977 -0.41918945
-0.5253906 -0.47045898 -0.13720703 -0.23657227 -0.35327148 -0.99121094 -1.0498047 0.054229736
-0.6611328 -1.3251953 0.8305664 0.48901367 -0.18225098 -0.06591797 0.68066406 0.54248047
-0.2524414 -0.4267578 0.6748047 0.81640625 0.23474121 0.011856079 0.15075684 1.375
0.17321777 0.40649414 0.29052734 0.31689453 1.7861328 1.8232422 0.115234375 3.3261719
0.10406494 0.1484375 1.0244141 -0.46069336 -0.2644043 -0.3330078 -0.5073242 -0.3918457
-0.1083374 2.2910156 -0.16430664 -0.030593872 0.067871094 0.10266113 -0.10852051 -0.81591797
-0.921875 -0.08074951 -0.6513672 0.07574463 -0.21411133 0.051483154 -0.008399963 -0.24194336
-0.107788086 -0.4494629 -1.1513672 -3.5351562 -0.47973633 -0.91259766 -0.72265625 0.046783447
1.0957031 0.68408203 0.0970459 0.6645508 0.9350586 -0.025009155 -0.45263672 -0.056640625
-0.010986328 0.093322754 0.74072266 0.8876953 -0.2775879 1.0908203 1.1347656 -0.027008057
-0.008453369 0.42626953 0.44458008 0.3540039 0.37353516 1.4091797 0.34448242 -0.83691406
1.8564453 -0.70703125 -2.2988281 0.7480469 -0.07421875 0.013534546 0.26733398 -1.0732422
-0.17297363 -0.13305664 -0.19128418 -0.14697266 -1.3046875 0.026809692 -1.3847656 0.32592773
2.6503906 -0.40600586 -0.8564453 -0.5151367 -1.5605469 0.15637207 -0.36645508 -1.4570312
0.90185547 0.16271973 -0.5361328 0.5708008 0.75390625 0.33422852 -3.2539062 -1.3310547
0.5678711 0.2824707 -0.27270508 0.14196777 4.0664062 1.5283203 -0.96777344 -0.54589844
-0.2310791 0.2548828 0.2541504 -1.8808594 0.048034668 1.4892578 0.84521484 0.0892334
0.040008545 0.19360352 1.1425781 0.12536621 2.6152344 1.1806641 1.1035156 1.3876953
1.0175781 -0.9082031 -0.65234375 -0.9277344 -0.004436493 1.4707031 0.44921875 -0.6948242
0.0057296753 0.29418945 -0.8154297 -1.4970703 -1.0478516 -0.30249023 -0.36767578 -0.29541016
0.97314453 0.7685547 0.22497559 -0.21972656 0.13110352 -0.25708008 -0.13171387 1.4248047
-0.17663574 -0.64697266 -0.36914062 -0.51708984 0.22668457 -0.40673828 -0.17578125 0.028121948
-0.9169922 -0.30688477 1.1630859 0.66259766 0.40942383 0.28271484 0.12408447 0.22937012
0.00983429 -2.1328125 0.21496582 0.16540527 0.23986816 0.17443848 -0.20617676 -0.55322266
-0.8852539 -0.41259766 -1.1621094 -0.8540039 -0.52001953 -0.34448242 -0.3161621 0.06304932
0.47387695 0.60058594 0.34570312 1.0292969 0.2298584 -0.35913086 -0.14501953 -0.35375977
0.88720703 -0.5961914 -0.69921875 2.1425781 0.28198242 -1.1162109 0.77197266 0.5332031
-0.5205078 0.13696289 0.5878906 0.8022461 -0.0024375916 1.2626953 0.8432617 -0.038635254
0.19714355 0.41210938 -0.32006836 0.25073242 0.31079102 -0.23339844 -2.4355469 0.4074707
-0.25976562 -0.076171875 0.17382812 -0.81689453 -1.0654297 -0.30371094 -0.8208008 -4.0664062
-0.022476196 0.36547852 -0.036712646 -0.08300781 0.51660156 0.20458984 0.4597168 -0.23925781
00000000: 00e0 8bbf 0020 c3bf 0040 d8be 0060 7bbe
00000010: 0020 86bf 0080 9abf 0040 4a3e 00a0 d6be
00000020: 0080 06bf 00e0 f0be 0080 0cbe 0040 72be
00000030: 00e0 b4be 00c0 7dbf 0060 86bf 0020 5e3d
00000040: 0040 29bf 00a0 a9bf 00a0 543f 0060 fa3e
00000050: 00a0 3abe 0000 87bd 0040 2e3f 00e0 0a3f
00000060: 0040 81be 0080 dabe 00c0 2c3f 0000 513f
00000070: 0060 703e 0040 423c 0060 1a3e 0000 b03f
00000080: 0060 313e 0020 d03e 00c0 943e 0040 a23e
00000090: 00a0 e43f 0060 e93f 0000 ec3d 00e0 5440
000000a0: 0020 d53d 0000 183e 0020 833f 00e0 ebbe
000000b0: 0060 87be 0080 aabe 00e0 01bf 00a0 c8be
000000c0: 00e0 ddbd 00a0 1240 0040 28be 00a0 fabc
000000d0: 0000 8b3d 0040 d23d 0040 debd 00e0 50bf
000000e0: 0000 6cbf 0060 a5bd 00c0 26bf 0020 9b3d
000000f0: 0040 5bbe 00e0 523d 00a0 09bc 00c0 77be
00000100: 00c0 dcbd 0020 e6be 0060 93bf 0040 62c0
00000110: 00a0 f5be 00a0 69bf 0000 39bf 00a0 3f3d
00000120: 0040 8c3f 0020 2f3f 00c0 c63d 0020 2a3f
00000130: 0060 6f3f 00e0 ccbc 00c0 e7be 0000 68bd
00000140: 0000 34bc 0020 bf3d 00a0 3d3f 0040 633f
00000150: 0020 8ebe 00a0 8b3f 0040 913f 0040 ddbc
00000160: 0080 0abc 0040 da3e 00a0 e33e 0040 b53e
00000170: 0040 bf3e 0060 b43f 0060 b03e 0040 56bf
00000180: 00a0 ed3f 0000 35bf 0020 13c0 0080 3f3f
00000190: 0000 98bd 00c0 5d3c 00e0 883e 0060 89bf
000001a0: 0020 31be 0040 08be 00e0 43be 0080 16be
000001b0: 0000 a7bf 00a0 db3c 0040 b1bf 00e0 a63e
000001c0: 00a0 2940 00e0 cfbe 0040 5bbf 00e0 03bf
000001d0: 00c0 c7bf 0020 203e 00a0 bbbe 0080 babf
000001e0: 00e0 663f 00a0 263e 0040 09bf 0020 123f
000001f0: 0000 413f 0020 ab3e 0040 50c0 0060 aabf
00000200: 0060 113f 00a0 903e 00a0 8bbe 0060 113e
00000210: 0020 8240 00a0 c33f 00c0 77bf 00c0 0bbf
00000220: 00a0 6cbe 0080 823e 0020 823e 00c0 f0bf
00000230: 00c0 443d 00a0 be3f 0060 583f 00c0 b63d
00000240: 00e0 233d 0040 463e 0040 923f 0060 003e
00000250: 0060 2740 0020 973f 0040 8d3f 00a0 b13f
00000260: 0040 823f 0080 68bf 0000 27bf 0080 6dbf
00000270: 0060 91bb 0040 bc3f 0000 e63e 00e0 31bf
00000280: 00c0 bb3b 00a0 963e 00c0 50bf 00a0 bfbf
00000290: 0020 86bf 00e0 9abe 0040 bcbe 0040 97be
000002a0: 0020 793f 00c0 443f 0060 663e 0000 61be
000002b0: 0040 063e 00a0 83be 00e0 06be 0060 b63f
000002c0: 00e0 34be 00a0 25bf 0000 bdbe 0060 04bf
000002d0: 0020 683e 0040 d0be 0000 34be 0060 e63c
000002e0: 00c0 6abf 0020 9dbe 00e0 943f 00a0 293f
000002f0: 00a0 d13e 00c0 903e 0020 fe3d 00e0 6a3e
00000300: 0020 213c 0080 08c0 0020 5c3e 0060 293e
00000310: 00a0 753e 00a0 323e 0020 53be 00a0 0dbf
00000320: 00a0 62bf 0040 d3be 00c0 94bf 00a0 5abf
00000330: 0020 05bf 0060 b0be 00e0 a1be 0020 813d
00000340: 00a0 f23e 00c0 193f 0000 b13e 00c0 833f
00000350: 0060 6b3e 00e0 b7be 0080 14be 0020 b5be
00000360: 0020 633f 00a0 18bf 0000 33bf 0020 0940
00000370: 0060 903e 00e0 8ebf 00a0 453f 0080 083f
00000380: 0040 05bf 0040 0c3e 0080 163f 0060 4d3f
00000390: 00c0 1fbb 00a0 a13f 00e0 573f 0040 1ebd
000003a0: 00e0 493e 0000 d33e 00e0 a3be 0060 803e
000003b0: 0020 9f3e 0000 6fbe 00e0 1bc0 00a0 d03e
000003c0: 0000 85be 0000 9cbd 0000 323e 0020 51bf
000003d0: 0060 88bf 0080 9bbe 0020 52bf 0020 82c0
000003e0: 0020 b8bc 0020 bb3e 0060 16bd 0000 aabd
000003f0: 0040 043f 0080 513e 0060 eb3e 0000 75be

depthwise_conv2d_11/Kernel f4 [88, 1, 3, 3]
1.6328125 1.6572266 1.5175781 0.9404297 1.2714844 0.9682617 1.4863281 1.2587891
0.57714844 -0.0881958 0.16467285 0.45483398 -1.1660156 -0.71191406 0.5566406 -1.5751953
-0.6069336 0.9379883 -0.3239746 0.09851074 -0.4025879 -2.5976562 -2.7460938 -0.48657227
-2.0273438 -2.7460938 -0.46411133 -0.08404541 1.9306641 1.2060547 -1.3515625 0.8964844
0.66064453 -0.9824219 0.22631836 0.0027160645 -0.121520996 -1.515625 -0.4050293 -1.4833984
-2.4453125 -0.4321289 -1.5107422 -1.3164062 -0.0043678284 -0.19934082 -0.012435913 0.6201172
1.0214844 1.0654297 1.1142578 0.5498047 1.265625 1.3320312 -0.62402344 -1.1035156
-1.3886719 -0.080322266 -1.4189453 -1.2470703 0.65283203 -0.28808594 -0.3322754 1.4082031
1.2851562 0.3059082 0.77441406 0.8457031 0.28125 0.27172852 -0.19494629 0.7602539
-0.6801758 -1.4765625 -1.1523438 -1.4394531 -2.4257812 -1.8789062 -1.1289062 -1.7480469
-1.7724609 0.37890625 1.0498047 1.1425781 -0.33691406 0.8618164 1.0966797 -0.8173828
0.51416016 1.171875 2.0703125 1.7060547 -0.62060547 0.34643555 -0.88378906 -0.3869629
-2.9511719 -1.4589844 0.5810547 -0.90771484 0.39086914 0.7636719 -1.4140625 -0.39111328
0.15344238 -1.9433594 -1.6523438 -0.72021484 -4.6054688 -4.578125 -3.2714844 -5.4804688
-4.1679688 -3.1445312 -2.5253906 -2.4316406 -2.0214844 0.1217041 -0.52685547 -0.6791992
0.1303711 0.24707031 -0.55371094 0.62939453 0.93652344 0.4711914 1.1572266 0.6328125
-0.029159546 0.11431885 -0.78466797 -1.2792969 -1.5371094 -2.5390625 -1.7861328 1.2861328
1.6318359 0.4584961 1.4677734 2.0019531 0.5048828 0.14428711 0.66796875 0.6982422
2.8691406 3.6328125 0.78027344 4.2109375 4.484375 1.2568359 2.375 2.1367188
0.69189453 -0.9536133 -1.4101562 -1.8173828 0.03604126 -0.028717041 -0.38671875 0.625
0.6191406 0.28857422 -0.51123047 -0.42529297 -1.0615234 -0.86376953 -1.5195312 -1.6005859
-1.4101562 -1.9628906 -1.4306641 -1.0595703 -1.2382812 1.9482422 -0.39233398 -0.87109375
1.4091797 1.2011719 1.3964844 0.9580078 -1.5810547 -1.5869141 0.11798096 -1.4267578
-1.3710938 0.39160156 -0.8618164 -0.09411621 0.32421875 -1.5488281 -1.3613281 -0.6040039
-0.77685547 -1.0458984 -0.34277344 -0.09472656 -0.40576172 -0.5878906 -1.6914062 -2.1152344
-1.6601562 -1.6923828 -1.90625 -1.4111328 -0.42041016 -0.8959961 -0.7988281 -0.79345703
-1.4023438 0.98583984 -0.89501953 -1.6201172 0.64404297 -0.7495117 -0.9555664 0.2130127
-2.0117188 -0.6582031 -0.2878418 -1.4501953 -0.61035156 -1.7919922 -1.3417969 -0.8251953
-0.85791016 1.2802734 1.3515625 1.0957031 0.61083984 1.0869141 0.5053711 0.084106445
0.44628906 -0.078125 -0.28295898 -1.2910156 -1.0605469 0.3798828 -0.2919922 -1.1123047
0.41625977 0.14135742 -0.4177246 0.6723633 -0.44799805 -0.8076172 1.7861328 0.5229492
-0.8100586 2.3398438 0.6298828 -0.0146865845 -2.3105469 -2.0175781 -1.2041016 -1.9072266
00000000: 0000 d13f 0020 d43f 0040 c23f 00c0 703f
00000010: 00c0 a23f 00e0 773f 0040 be3f 0020 a13f
00000020: 00c0 133f 00a0 b4bd 00a0 283e 00e0 e83e
00000030: 0040 95bf 0040 36bf 0080 0e3f 00a0 c9bf
00000040: 0060 1bbf 0020 703f 00e0 a5be 00c0 c93d
00000050: 0020 cebe 0040 26c0 00c0 2fc0 0020 f9be
00000060: 00c0 01c0 00c0 2fc0 00a0 edbe 0020 acbd
00000070: 0020 f73f 0060 9a3f 0000 adbf 0080 653f
00000080: 0020 293f 0080 7bbf 00c0 673e 0000 323b
00000090: 00e0 f8bd 0000 c2bf 0060 cfbe 00e0 bdbf
000000a0: 0080 1cc0 0040 ddbe 0060 c1bf 0080 a8bf
000000b0: 0020 8fbb 0020 4cbe 00c0 4bbc 00c0 1e3f
000000c0: 00c0 823f 0060 883f 00a0 8e3f 00c0 0c3f
000000d0: 0000 a23f 0080 aa3f 00c0 1fbf 0040 8dbf
000000e0: 00c0 b1bf 0080 a4bd 00a0 b5bf 00a0 9fbf
000000f0: 0020 273f 0080 93be 0020 aabe 0040 b43f
00000100: 0080 a43f 00a0 9c3e 0040 463f 0080 583f
00000110: 0000 903e 0020 8b3e 00a0 47be 00a0 423f
00000120: 0020 2ebf 0000 bdbf 0080 93bf 0040 b8bf
00000130: 0040 1bc0 0080 f0bf 0080 90bf 00c0 dfbf
00000140: 00e0 e2bf 0000 c23e 0060 863f 0040 923f
00000150: 0080 acbe 00a0 5c3f 0060 8c3f 0040 51bf
00000160: 00a0 033f 0000 963f 0080 0440 0060 da3f
00000170: 00e0 1ebf 0060 b13e 0040 62bf 0020 c6be
00000180: 00e0 3cc0 00c0 babf 00c0 143f 0060 68bf
00000190: 0020 c83e 0080 433f 0000 b5bf 0040 c8be
000001a0: 0020 1d3e 00c0 f8bf 0080 d3bf 0060 38bf
000001b0: 0060 93c0 0080 92c0 0060 51c0 0060 afc0
000001c0: 0060 85c0 0040 49c0 00a0 21c0 00a0 1bc0
000001d0: 0060 01c0 0040 f93d 00e0 06bf 00e0 2dbf
000001e0: 0080 053e 0000 7d3e 00c0 0dbf 0020 213f
000001f0: 00c0 6f3f 0040 f13e 0020 943f 0000 223f
00000200: 00e0 eebc 0020 ea3d 00e0 48bf 00c0 a3bf
00000210: 00c0 c4bf 0080 22c0 00a0 e4bf 00a0 a43f
00000220: 00e0 d03f 00c0 ea3e 00e0 bb3f 0020 0040
00000230: 0040 013f 00c0 133e 0000 2b3f 00c0 323f
00000240: 00a0 3740 0080 6840 00c0 473f 00c0 8640
00000250: 0080 8f40 00e0 a03f 0000 1840 00c0 0840
00000260: 0020 313f 0020 74bf 0080 b4bf 00a0 e8bf
00000270: 00a0 133d 0040 ebbc 0000 c6be 0000 203f
00000280: 0080 1e3f 00c0 933e 00e0 02bf 00c0 d9be
00000290: 00e0 87bf 0020 5dbf 0080 c2bf 00e0 ccbf
000002a0: 0080 b4bf 0040 fbbf 0020 b7bf 00a0 87bf
000002b0: 0080 9ebf 0060 f93f 00e0 c8be 0000 5fbf
000002c0: 0060 b43f 00c0 993f 00c0 b23f 0040 753f
000002d0: 0060 cabf 0020 cbbf 00a0 f13d 00a0 b6bf
000002e0: 0080 afbf 0080 c83e 00a0 5cbf 00c0 c0bd
000002f0: 0000 a63e 0040 c6bf 0040 aebf 00a0 1abf
00000300: 00e0 46bf 00e0 85bf 0080 afbe 0000 c2bd
00000310: 00c0 cfbe 0080 16bf 0080 d8bf 0060 07c0
00000320: 0080 d4bf 00a0 d8bf 0000 f4bf 00a0 b4bf
00000330: 0040 d7be 0060 65bf 0080 4cbf 0020 4bbf
00000340: 0080 b3bf 0060 7c3f 0020 65bf 0060 cfbf
00000350: 00e0 243f 00e0 3fbf 00a0 74bf 0020 5a3e
00000360: 00c0 00c0 0080 28bf 0060 93be 00a0 b9bf
00000370: 0040 1cbf 0060 e5bf 00c0 abbf 0040 53bf
00000380: 00a0 5bbf 00e0 a33f 0000 ad3f 0040 8c3f
00000390: 0060 1c3f 0020 8b3f 0060 013f 0040 ac3d
000003a0: 0080 e43e 0000 a0bd 00e0 90be 0040 a5bf
000003b0: 00c0 87bf 0080 c23e 0080 95be 0060 8ebf
000003c0: 0020 d53e 00c0 103e 00e0 d5be 0020 2c3f
000003d0: 0060 e5be 00c0 4ebf 00a0 e43f 00e0 053f
000003e0: 0060 4fbf 00c0 1540 0040 213f 00a0 70bc
000003f0: 00e0 13c0 0020 01c0 0020 9abf 0020 f4bf

conv2d_2/Bias f4 [28]
0.066345215 -0.3569336 0.14697266 0.2746582 0.038726807 0.72314453 0.011375427 1.7919922
0.21008301 1.0625 0.30273438 0.28149414 0.9975586 -0.8276367 -0.3022461 -0.3503418
-0.12841797 -0.23535156 0.42236328 0.5878906 0.39257812 0.012573242 0.19628906 -1.3037109
-0.113098145 -0.9692383 -0.90185547 0.5649414
00000000: 00e0 873d 00c0 b6be 0080 163e 00a0 8c3e
00000010: 00a0 1e3d 0020 393f 0060 3a3c 0060 e53f
00000020: 0020 573e 0000 883f 0000 9b3e 0020 903e
00000030: 0060 7f3f 00e0 53bf 00c0 9abe 0060 b3be
00000040: 0080 03be 0000 71be 0040 d83e 0080 163f
00000050: 0000 c93e 0000 4e3c 0000 493e 00e0 a6bf
00000060: 00a0 e7bd 0020 78bf 00e0 66bf 00a0 103f

depthwise_conv2d_1/Bias f4 [24]
0.0 0.0 0.0 0.0 0.0 0.0 0.0 0.0
0.0 0.0 0.0 0.0 0.0 0.0 0.0 0.0
0.0 0.0 0.0 0.0 0.0 0.0 0.0 0.0
00000000: 0000 0000 0000 0000 0000 0000 0000 0000
00000010: 0000 0000 0000 0000 0000 0000 0000 0000
00000020: 0000 0000 0000 0000 0000 0000 0000 0000
00000030: 0000 0000 0000 0000 0000 0000 0000 0000
00000040: 0000 0000 0000 0000 0000 0000 0000 0000
00000050: 0000 0000 0000 0000 0000 0000 0000 0000

conv2d_3/Bias f4 [32]
2.2851562 -0.63427734 -1.3291016 1.0791016 0.53759766 1.6435547 1.6269531 -0.55126953
0.6948242 -0.67529297 -0.8149414 3.296875 0.117004395 1.0537109 1.2529297 0.5888672
1.1591797 0.47509766 0.50146484 1.0771484 1.7392578 2.9882812 -1.5888672 -0.21350098
0.11590576 1.0742188 -1.9707031 0.1126709 0.6723633 0.6567383 0.44091797 0.47875977
00000000: 0040 1240 0060 22bf 0020 aabf 0020 8a3f
00000010: 00a0 093f 0060 d23f 0040 d03f 0020 0dbf
00000020: 00e0 313f 00e0 2cbf 00a0 50bf 0000 5340
00000030: 00a0 ef3d 00e0 863f 0060 a03f 00c0 163f
00000040: 0060 943f 0040 f33e 0060 003f 00e0 893f
00000050: 00a0 de3f 0040 3f40 0060 cbbf 00a0 5abe
00000060: 0060 ed3d 0080 893f 0040 fcbf 00c0 e63d
00000070: 0020 2c3f 0020 283f 00c0 e13e 0020 f53e

depthwise_conv2d_7/Bias f4 [56]
0.0 0.0 0.0 0.0 0.0 0.0 0.0 0.0
0.0 0.0 0.0 0.0 0.0 0.0 0.0 0.0
0.0 0.0 0.0 0.0 0.0 0.0 0.0 0.0
0.0 0.0 0.0 0.0 0.0 0.0 0.0 0.0
0.0 0.0 0.0 0.0 0.0 0.0 0.0 0.0
0.0 0.0 0.0 0.0 0.0 0.0 0.0 0.0
0.0 0.0 0.0 0.0 0.0 0.0 0.0 0.0
00000000: 0000 0000 0000 0000 0000 0000 0000 0000
00000010: 0000 0000 0000 0000 0000 0000 0000 0000
00000020: 0000 0000 0000 0000 0000 0000 0000 0000
00000030: 0000 0000 0000 0000 0000 0000 0000 0000
00000040: 0000 0000 0000 0000 0000 0000 0000 0000
00000050: 0000 0000 0000 0000 0000 0000 0000 0000
00000060: 0000 0000 0000 0000 0000 0000 0000 0000
00000070: 0000 0000 0000 0000 0000 0000 0000 0000
00000080: 0000 0000 0000 0000 0000 0000 0000 0000
00000090: 0000 0000 0000 0000 0000 0000 0000 0000
000000a0: 0000 0000 0000 0000 0000 0000 0000 0000
000000b0: 0000 0000 0000 0000 0000 0000 0000 0000
000000c0: 0000 0000 0000 0000 0000 0000 0000 0000
000000d0: 0000 0000 0000 0000 0000 0000 0000 0000

conv2d_9/Kernel f4 [72, 64, 1, 1]
-0.11639404 0.031677246 0.07531738 -0.11657715 0.30297852 -0.1586914 0.15917969 -0.0892334
0.12585449 -0.02458191 -0.039398193 -0.017333984 -0.019302368 -0.032226562 0.06982422 -0.09539795
0.06451416 -0.23339844 0.17126465 -0.08496094 -0.0024490356 0.0025501251 0.041992188 -0.012046814
0.089660645 -0.021133423 -0.1361084 -0.008613586 -0.08312988 -0.012962341 -0.10418701 0.03201294
0.14440918 0.07873535 -0.0385437 0.067871094 0.07873535 0.16894531 -0.042114258 -0.062805176
-0.03250122 -0.21716309 0.06304932 0.010223389 0.04751587 -0.033294678 0.11663818 -0.026107788
-0.025634766 0.11798096 -0.007255554 0.12670898 -0.14428711 -0.087524414 0.002796173 -0.0029582977
-0.1977539 0.032165527 0.03543091 -0.062927246 -0.2043457 0.20349121 -0.050445557 -0.07489014
0.17944336 -0.35107422 -0.062286377 -0.051452637 0.22009277 -0.15991211 0.0069847107 -0.014556885
0.005718231 0.020523071 -0.0048713684 -0.04534912 0.060028076 0.02848816 -0.0001757145 -0.18188477
0.031951904 -0.030426025 -0.07836914 0.046203613 0.012359619 -0.00068187714 0.02798462 0.10986328
0.17321777 0.02909851 -0.11340332 -0.018173218 0.18188477 -0.13684082 -0.034729004 0.09112549
-0.082336426 -0.021972656 0.04348755 -0.019378662 0.028015137 0.027069092 0.17358398 -0.1159668
-0.0016365051 -0.08709717 -0.10119629 -0.019714355 0.11206055 0.028259277 -0.012130737 -0.017181396
-0.03152466 -0.0435791 0.04232788 -0.020904541 -0.051849365 0.036712646 -0.0836792 0.011222839
-0.06085205 0.028335571 0.008598328 -0.013572693 0.030014038 -0.0016098022 -0.055877686 -0.15966797
0.1427002 0.10217285 0.026382446 0.076171875 0.0262146 0.08843994 0.10424805 -0.016860962
0.029632568 -0.11816406 -0.06719971 -0.070495605 0.025314331 -0.08880615 0.03643799 -0.0036849976
0.034332275 -0.04067993 0.00059986115 0.041870117 0.040527344 0.032196045 -0.1352539 -0.03314209
0.19274902 0.06286621 -0.011787415 -0.019821167 0.02722168 0.009681702 0.0001885891 0.019439697
-0.11242676 -0.029388428 -0.022460938 0.026123047 -0.02810669 0.04296875 -0.032287598 0.028747559
0.01737976 -0.056274414 -0.010787964 -0.0385437 -0.030090332 0.03488159 0.07019043 0.1159668
0.038330078 -0.21899414 0.030212402 -0.17004395 -0.045013428 -0.054229736 0.009048462 0.04208374
0.048065186 0.05517578 -0.013206482 -0.06048584 0.011352539 -0.009376526 0.1862793 -0.08905029
-0.03488159 -0.010688782 -0.05026245 -0.113098145 -0.02848816 -0.0435791 -0.017562866 -0.22827148
-0.020141602 -0.053955078 0.06768799 0.006275177 -0.038360596 -0.0039978027 -0.097229004 -0.013595581
0.011444092 -0.05706787 0.027908325 -0.088378906 -0.016677856 -0.09265137 0.049041748 0.057647705
-0.026306152 0.00058460236 0.00037932396 0.06964111 0.055419922 -0.11706543 -0.048339844 -0.017425537
0.0079193115 -0.03274536 0.09234619 0.018249512 0.007671356 0.044403076 0.0056648254 -0.09210205
-0.04244995 -0.07733154 0.08178711 0.025283813 -0.00034809113 0.16271973 0.044647217 0.16430664
-0.17358398 0.030654907 0.113220215 0.003786087 -0.021636963 0.027526855 0.0146865845 -0.09118652
0.08770752 -0.04034424 -0.11395264 -0.018463135 0.117492676 -0.10247803 0.02368164 0.11859131
00000000: 0060 eebd 00c0 013d 0040 9a3d 00c0 eebd
00000010: 0020 9b3e 0080 22be 0000 233e 00c0 b6bd
00000020: 00e0 003e 0060 c9bc 0060 21bd 0000 8ebc
00000030: 0020 9ebc 0000 04bd 0000 8f3d 0060 c3bd
00000040: 0020 843d 0000 6fbe 0060 2f3e 0000 aebd
00000050: 0080 20bb 0020 273b 0000 2c3d 0060 45bc
00000060: 00a0 b73d 0020 adbc 0060 0bbe 0020 0dbc
00000070: 0040 aabd 0060 54bc 0060 d5bd 0020 033d
00000080: 00e0 133e 0040 a13d 00e0 1dbd 0000 8b3d
00000090: 0040 a13d 0000 2d3e 0080 2cbd 00a0 80bd
000000a0: 0020 05bd 0060 5ebe 0020 813d 0080 273c
000000b0: 00a0 423d 0060 08bd 00e0 ee3d 00e0 d5bc
000000c0: 0000 d2bc 00a0 f13d 00c0 edbb 00c0 013e
000000d0: 00c0 13be 0040 b3bd 0040 373b 00e0 41bb
000000e0: 0080 4abe 00c0 033d 0020 113d 00e0 80bd
000000f0: 0040 51be 0060 503e 00a0 4ebd 0060 99bd
00000100: 00c0 373e 00c0 b3be 0020 7fbd 00c0 52bd
00000110: 0060 613e 00c0 23be 00e0 e43b 0080 6ebc
00000120: 0060 bb3b 0020 a83c 00a0 9fbb 00c0 39bd
00000130: 00e0 753d 0060 e93c 0040 38b9 0040 3abe
00000140: 00e0 023d 0040 f9bc 0080 a0bd 0040 3d3d
00000150: 0080 4a3c 00c0 32ba 0040 e53c 0000 e13d
00000160: 0060 313e 0060 ee3c 0040 e8bd 00e0 94bc
00000170: 0040 3a3e 0020 0cbe 0040 0ebd 00a0 ba3d
00000180: 00a0 a8bd 0000 b4bc 0020 323d 00c0 9ebc
00000190: 0080 e53c 00c0 dd3c 00c0 313e 0080 edbd
000001a0: 0080 d6ba 0060 b2bd 0040 cfbd 0080 a1bc
000001b0: 0080 e53d 0080 e73c 00c0 46bc 00c0 8cbc
000001c0: 0020 01bd 0080 32bd 0060 2d3d 0040 abbc
000001d0: 0060 54bd 0060 163d 0060 abbd 00e0 373c
000001e0: 0040 79bd 0020 e83c 00e0 0c3c 0060 5ebc
000001f0: 00e0 f53c 0000 d3ba 00e0 64bd 0080 23be
00000200: 0020 123e 0040 d13d 0020 d83c 0000 9c3d
00000210: 00c0 d63c 0020 b53d 0080 d53d 0020 8abc
00000220: 00c0 f23c 0000 f2bd 00a0 89bd 0060 90bd
00000230: 0060 cf3c 00e0 b5bd 0040 153d 0080 71bb
00000240: 00a0 0c3d 00a0 26bd 0040 1d3a 0080 2b3d
00000250: 0000 263d 00e0 033d 0080 0abe 00c0 07bd
00000260: 0060 453e 00c0 803d 0020 41bc 0060 a2bc
00000270: 0000 df3c 00a0 1e3c 00c0 4539 0040 9f3c
00000280: 0040 e6bd 00c0 f0bc 0000 b8bc 0000 d63c
00000290: 0040 e6bc 0000 303d 0040 04bd 0080 eb3c
000002a0: 0060 8e3c 0080 66bd 00c0 30bc 00e0 1dbd
000002b0: 0080 f6bc 00e0 0e3d 00c0 8f3d 0080 ed3d
000002c0: 0000 1d3d 0040 60be 0080 f73c 0020 2ebe
000002d0: 0060 38bd 0020 5ebd 0040 143c 0060 2c3d
000002e0: 00e0 443d 0000 623d 0060 58bc 00c0 77bd
000002f0: 0000 3a3c 00a0 19bc 00c0 3e3e 0060 b6bd
00000300: 00e0 0ebd 0020 2fbc 00e0 4dbd 00a0 e7bd
00000310: 0060 e9bc 0080 32bd 00e0 8fbc 00c0 69be
00000320: 0000 a5bc 0000 5dbd 00a0 8a3d 00a0 cd3b
00000330: 0020 1dbd 0000 83bb 0020 c7bd 00c0 5ebc
00000340: 0080 3b3c 00c0 69bd 00a0 e43c 0000 b5bd
00000350: 00a0 88bc 00c0 bdbd 00e0 483d 0020 6c3d
00000360: 0080 d7bc 0040 193a 00e0 c639 00a0 8e3d
00000370: 0000 633d 00c0 efbd 0000 46bd 00c0 8ebc
00000380: 00c0 013c 0020 06bd 0020 bd3d 0080 953c
00000390: 0060 fb3b 00e0 353d 00a0 b93b 00a0 bcbd
000003a0: 00e0 2dbd 0060 9ebd 0080 a73d 0020 cf3c
000003b0: 0080 b6b9 00a0 263e 00e0 363d 0040 283e
000003c0: 00c0 31be 0020 fb3c 00e0 e73d 0020 783b
000003d0: 0040 b1bc 0080 e13c 00a0 703c 00c0 babd
000003e0: 00a0 b33d 0040 25bd 0060 e9bd 0040 97bc
000003f0: 00a0 f03d 00e0 d1bd 0000 c23c 00e0 f23d
